onnx-example/simple_model.onnx (onnx, 6012 bytes, 6 tensors)

fc1.weight f4 [2, 2]
0.2965122 0.12768699 0.019466955 -0.22269754
00000000: 72d0 973e 61c0 023e 2a79 9f3c d30a 64be

fc1.bias f4 [2]
0.40341815 0.2099487
00000000: d38c ce3e cbfc 563e

fc2.weight f4 [3, 2]
-0.44345093 0.63738906 -0.4983411 -0.5506779 -0.40323263 0.0958754
00000000: 000c e3be ee2b 233f 9126 ffbe 3af9 0cbf
00000010: 8274 cebe 525a c43d

fc2.bias f4 [3]
-0.7040024 0.6967837 -0.43094698
00000000: 8039 34bf 6b60 323f 15a5 dcbe

fc3.weight f4 [4, 3]
-0.2754978 -0.0075691547 -0.07628579 -0.3793796 0.30354226 0.14412461 -0.41985002 0.29960385
0.02616746 -0.4884604 -0.5178384 -0.05445289
00000000: 0c0e 8dbe ac06 f8bb b93b 9cbd 0b3e c2be
00000010: e469 9b3e 6795 133e 95f6 d6be ad65 993e
00000020: 245d d63c 7b17 fabe 0f91 04bf fe09 5fbd

fc3.bias f4 [4]
-0.025434537 -0.31969514 -0.044803206 -0.26681155
00000000: 175c d0bc 15af a3be 9183 37bd 869b 88be
